lightning_logs/version_9/checkpoints/epoch=19-step=4380.ckpt (torch, 5756 bytes, 6 tensors)

model.linear1.weight f4 [10, 3]
00000000: 701d 303f a684 89bf 11b7 9cbe c4ea 003d
00000010: 0c31 6a3f e3e1 24be 3357 45bd 3721 6e3f
00000020: 08df a63d 6d5d 1fbc 7026 73bf 0267 993d
00000030: 40fd 433b 3ec5 6d3f 5429 953d 5043 493e
00000040: 90ea 3cbf f587 203c 2fcf 85bf b168 4fbf
00000050: e82f 5b3d f1a7 13bf b6d6 58bf 427f cf3d
00000060: d48d 603e 679d 95bf 1e91 f3be 7456 063f
00000070: 7cb6 aebf 858f ddbe
0.6879492 -1.0743606 -0.3060842 0.03147389 0.9148109 -0.16101794 -0.048178863 0.9301943
0.081480086 -0.009726864 -0.94980526 0.0749035 0.0029905587 0.9287909 0.07283273 0.19654584
-0.73795414 0.00979804 -1.0453852 -0.8101912 0.053512484 -0.57678133 -0.8470262 0.101316944
0.21929103 -1.168866 -0.47571653 0.52475667 -1.364944 -0.4327356

model.linear1.bias f4 [10]
00000000: c4cd 8e3d 5aab 9cbf f4f7 bcbf cc3b a83f
00000010: f1b4 99bf e1e7 b13f 3d27 6e3f e784 763f
00000020: aa1b 813f 8df4 d73e
0.069728404 -1.2239792 -1.4763169 1.3143249 -1.2008344 1.3898889 0.9302862 0.9629654
1.0086567 0.42178765

model.linear2.weight f4 [1, 10]
00000000: dbdd 43bf c2e9 803f 5f98 773f 1ee2 08bf
00000010: cdb0 453f 4d22 22bf 8ea2 fabe 7ed1 08bf
00000020: 1097 82bf af97 3ebf
-0.765104 1.0071337 0.96716875 -0.5347003 0.772229 -0.6333359 -0.48952144 -0.5344466
-1.0202351 -0.744502

square_avg f4 [10, 3]
00000000: 2320 8439 9c02 4f39 d70c 1339 9642 333a
00000010: 1a9b 063b 54a3 033a 85e7 073a 123f 0c3b
00000020: eb90 053a 9209 f338 df22 0739 17be cd38
00000030: f3b9 e739 8f83 d53a 875c bd39 7d8c 5d39
00000040: 2102 bb39 968d 4339 d4ee 7c38 e5cb 8d39
00000050: c5f8 d738 fd4f 8e38 3493 9539 1828 0039
00000060: 4613 8f39 34aa 3839 1769 4539 4e62 a938
00000070: 9063 0838 088c 6b38
0.00025200946 0.0001974203 0.00014023796 0.000683823 0.0020539225 0.0005021591 0.00051843404 0.0021399898
0.0005095142 0.000115889256 0.00012887594 9.810569e-05 0.00044198296 0.0016289818 0.00036117827 0.00021128538
0.00035669006 0.00018649394 6.0303908e-05 0.0002704553 0.00010298336 6.7859866e-05 0.0002852917 0.00012221967
0.00027289445 0.00017611013 0.00018826533 8.076859e-05 3.251765e-05 5.615878e-05

square_avg f4 [10]
00000000: 1305 e438 9c65 fe39 70ae 003a 6471 db38
00000010: 1263 de39 4ce9 3839 74f1 1639 81dd 2939
00000020: 3e27 3d39 6ba2 3b38
0.00010872832 0.0004852236 0.0004908806 0.000104638544 0.00042416953 0.00017634517 0.00014395063 0.00016199613
0.00018039063 4.4735538e-05

square_avg f4 [1, 10]
00000000: bf3c 3f38 ba9f 2239 cbd0 2b39 639f 2739
00000010: f379 9d39 b231 2039 914d a639 10f2 7739
00000020: 1969 5a38 614e d637
4.5594523e-05 0.00015509027 0.00016385612 0.00015985737 0.00030036233 0.00015277302 0.0003171978 0.00023645931
5.207313e-05 2.5547286e-05
